model: CNN_AL(
  (layers): ModuleList(
    (0): CNNLayer(
      (enc): ENC(
        (f): Sequential(
          (0): Sequential(
            (0): Conv2d(3, 32, kernel_size=(3, 3), stride=(1, 1), padding=(1, 1))
            (1): ReLU()
          )
          (1): Sequential(
            (0): Conv2d(32, 32, kernel_size=(3, 3), stride=(1, 1), padding=(1, 1))
            (1): ReLU()
          )
        )
        (b): Sequential(
          (0): Flatten()
          (1): Linear(in_features=32768, out_features=2500, bias=True)
          (2): Sigmoid()
          (3): Linear(in_features=2500, out_features=500, bias=True)
          (4): Sigmoid()
        )
        (cri): MSELoss()
      )
      (ae): AE(
        (g): Sequential(
          (0): Linear(in_features=200, out_features=500, bias=True)
          (1): Sigmoid()
        )
        (h): Sequential(
          (0): Linear(in_features=500, out_features=200, bias=True)
          (1): Sigmoid()
        )
        (cri): CrossEntropyLoss()
      )
    )
    (1): CNNLayer(
      (enc): ENC(
        (f): Sequential(
          (0): Sequential(
            (0): Conv2d(32, 32, kernel_size=(3, 3), stride=(1, 1), padding=(1, 1))
            (1): ReLU()
          )
          (1): Sequential(
            (0): Conv2d(32, 32, kernel_size=(3, 3), stride=(2, 2), padding=(1, 1))
            (1): ReLU()
          )
        )
        (b): Sequential(
          (0): Flatten()
          (1): Linear(in_features=8192, out_features=2500, bias=True)
          (2): Sigmoid()
          (3): Linear(in_features=2500, out_features=500, bias=True)
          (4): Sigmoid()
        )
        (cri): MSELoss()
      )
      (ae): AE(
        (g): Sequential(
          (0): Linear(in_features=500, out_features=500, bias=True)
          (1): Sigmoid()
        )
        (h): Sequential(
          (0): Linear(in_features=500, out_features=500, bias=True)
        )
        (cri): MSELoss()
      )
    )
    (2): CNNLayer(
      (enc): ENC(
        (f): Sequential(
          (0): Sequential(
            (0): Conv2d(32, 64, kernel_size=(3, 3), stride=(1, 1), padding=(1, 1))
            (1): ReLU()
          )
          (1): Sequential(
            (0): Conv2d(64, 64, kernel_size=(3, 3), stride=(1, 1), padding=(1, 1))
            (1): ReLU()
          )
        )
        (b): Sequential(
          (0): Flatten()
          (1): Linear(in_features=16384, out_features=2500, bias=True)
          (2): Sigmoid()
          (3): Linear(in_features=2500, out_features=500, bias=True)
          (4): Sigmoid()
        )
        (cri): MSELoss()
      )
      (ae): AE(
        (g): Sequential(
          (0): Linear(in_features=500, out_features=500, bias=True)
          (1): Sigmoid()
        )
        (h): Sequential(
          (0): Linear(in_features=500, out_features=500, bias=True)
        )
        (cri): MSELoss()
      )
    )
    (3): CNNLayer(
      (enc): ENC(
        (f): Sequential(
          (0): Sequential(
            (0): Conv2d(64, 64, kernel_size=(3, 3), stride=(1, 1), padding=(1, 1))
            (1): ReLU()
          )
          (1): Sequential(
            (0): Conv2d(64, 64, kernel_size=(3, 3), stride=(2, 2), padding=(1, 1))
            (1): ReLU()
          )
        )
        (b): Sequential(
          (0): Flatten()
          (1): Linear(in_features=4096, out_features=2500, bias=True)
          (2): Sigmoid()
          (3): Linear(in_features=2500, out_features=500, bias=True)
          (4): Sigmoid()
        )
        (cri): MSELoss()
      )
      (ae): AE(
        (g): Sequential(
          (0): Linear(in_features=500, out_features=500, bias=True)
          (1): Sigmoid()
        )
        (h): Sequential(
          (0): Linear(in_features=500, out_features=500, bias=True)
        )
        (cri): MSELoss()
      )
    )
  )
)
layers.0.enc.f.0.0.weight 864
layers.0.enc.f.0.0.bias 32
layers.0.enc.f.1.0.weight 9216
layers.0.enc.f.1.0.bias 32
layers.0.enc.b.1.weight 81920000
layers.0.enc.b.1.bias 2500
layers.0.enc.b.3.weight 1250000
layers.0.enc.b.3.bias 500
layers.0.ae.g.0.weight 100000
layers.0.ae.g.0.bias 500
layers.0.ae.h.0.weight 100000
…
