model: resnet18_AL(
  (layers): ModuleList(
    (0): CNNLayer(
      (enc): ENC(
        (f): Sequential(
          (0): Sequential(
            (0): Conv2d(3, 64, kernel_size=(3, 3), stride=(1, 1), padding=(1, 1), bias=False)
            (1): BatchNorm2d(64, eps=1e-05, momentum=0.1, affine=True, track_running_stats=True)
            (2): LeakyReLU(negative_slope=0.01, inplace=True)
          )
          (1): Sequential(
            (0): BasicBlock(
              (conv1): Sequential(
                (0): Conv2d(64, 64, kernel_size=(3, 3), stride=(1, 1), padding=(1, 1), bias=False)
                (1): BatchNorm2d(64, eps=1e-05, momentum=0.1, affine=True, track_running_stats=True)
                (2): LeakyReLU(negative_slope=0.01, inplace=True)
              )
              (conv2): Sequential(
                (0): Conv2d(64, 64, kernel_size=(3, 3), stride=(1, 1), padding=(1, 1), bias=False)
                (1): BatchNorm2d(64, eps=1e-05, momentum=0.1, affine=True, track_running_stats=True)
              )
              (relu): LeakyReLU(negative_slope=0.01, inplace=True)
              (shortcut): Sequential()
            )
            (1): BasicBlock(
              (conv1): Sequential(
                (0): Conv2d(64, 64, kernel_size=(3, 3), stride=(1, 1), padding=(1, 1), bias=False)
                (1): BatchNorm2d(64, eps=1e-05, momentum=0.1, affine=True, track_running_stats=True)
                (2): LeakyReLU(negative_slope=0.01, inplace=True)
              )
              (conv2): Sequential(
                (0): Conv2d(64, 64, kernel_size=(3, 3), stride=(1, 1), padding=(1, 1), bias=False)
                (1): BatchNorm2d(64, eps=1e-05, momentum=0.1, affine=True, track_running_stats=True)
              )
              (relu): LeakyReLU(negative_slope=0.01, inplace=True)
              (shortcut): Sequential()
            )
          )
        )
        (b): Sequential(
          (0): Flatten()
          (1): Linear(in_features=65536, out_features=2500, bias=True)
          (2): Sigmoid()
          (3): Linear(in_features=2500, out_features=500, bias=True)
          (4): Sigmoid()
        )
        (cri): MSELoss()
      )
      (ae): AE(
        (g): Sequential(
          (0): Linear(in_features=200, out_features=500, bias=True)
          (1): Sigmoid()
        )
        (h): Sequential(
          (0): Linear(in_features=500, out_features=200, bias=True)
          (1): Softmax(dim=1)
        )
        (cri): CrossEntropyLoss()
      )
    )
    (1): CNNLayer(
      (enc): ENC(
        (f): Sequential(
          (0): BasicBlock(
            (conv1): Sequential(
              (0): Conv2d(64, 128, kernel_size=(3, 3), stride=(2, 2), padding=(1, 1), bias=False)
              (1): BatchNorm2d(128, eps=1e-05, momentum=0.1, affine=True, track_running_stats=True)
              (2): LeakyReLU(negative_slope=0.01, inplace=True)
            )
            (conv2): Sequential(
              (0): Conv2d(128, 128, kernel_size=(3, 3), stride=(1, 1), padding=(1, 1), bias=False)
              (1): BatchNorm2d(128, eps=1e-05, momentum=0.1, affine=True, track_running_stats=True)
            )
            (relu): LeakyReLU(negative_slope=0.01, inplace=True)
            (shortcut): Sequential(
              (0): Conv2d(64, 128, kernel_size=(1, 1), stride=(2, 2), bias=False)
              (1): BatchNorm2d(128, eps=1e-05, momentum=0.1, affine=True, track_running_stats=True)
            )
          )
          (1): BasicBlock(
            (conv1): Sequential(
              (0): Conv2d(128, 128, kernel_size=(3, 3), stride=(1, 1), padding=(1, 1), bias=False)
              (1): BatchNorm2d(128, eps=1e-05, momentum=0.1, affine=True, track_running_stats=True)
              (2): LeakyReLU(negative_slope=0.01, inplace=True)
            )
            (conv2): Sequential(
              (0): Conv2d(128, 128, kernel_size=(3, 3), stride=(1, 1), padding=(1, 1), bias=False)
              (1): BatchNorm2d(128, eps=1e-05, momentum=0.1, affine=True, track_running_stats=True)
            )
            (relu): LeakyReLU(negative_slope=0.01, inplace=True)
            (shortcut): Sequential()
          )
        )
        (b): Sequential(
          (0): Flatten()
          (1): Linear(in_features=32768, out_features=2500, bias=True)
          (2): Sigmoid()
          (3): Linear(in_features=2500, out_features=500, bias=True)
          (4): Sigmoid()
        )
        (cri): MSELoss()
      )
      (ae): AE(
        (g): Sequential(
          (0): Linear(in_features=500, out_features=500, bias=True)
          (1): Sigmoid()
        )
        (h): Sequential(
          (0): Linear(in_features=500, out_features=500, bias=True)
          (1): Sigmoid()
        )
        (cri): MSELoss()
      )
    )
    (2): CNNLayer(
      (enc): ENC(
        (f): Sequential(
          (0): BasicBlock(
            (conv1): Sequential(
              (0): Conv2d(128, 256, kernel_size=(3, 3), stride=(2, 2), padding=(1, 1), bias=False)
              (1): BatchNorm2d(256, eps=1e-05, momentum=0.1, affine=True, track_running_stats=True)
              (2): LeakyReLU(negative_slope=0.01, inplace=True)
            )
            (conv2): Sequential(
              (0): Conv2d(256, 256, kernel_size=(3, 3), stride=(1, 1), padding=(1, 1), bias=False)
              (1): BatchNorm2d(256, eps=1e-05, momentum=0.1, affine=True, track_running_stats=True)
            )
            (relu): LeakyReLU(negative_slope=0.01, inplace=True)
            (shortcut): Sequential(
              (0): Conv2d(128, 256, kernel_size=(1, 1), stride=(2, 2), bias=False)
              (1): BatchNorm2d(256, eps=1e-05, momentum=0.1, affine=True, track_running_stats=True)
            )
          )
          (1): BasicBlock(
            (conv1): Sequential(
              (0): Conv2d(256, 256, kernel_size=(3, 3), stride=(1, 1), padding=(1, 1), bias=False)
              (1): BatchNorm2d(256, eps=1e-05, momentum=0.1, affine=True, track_running_stats=True)
              (2): LeakyReLU(negative_slope=0.01, inplace=True)
            )
            (conv2): Sequential(
              (0): Conv2d(256, 256, kernel_size=(3, 3), stride=(1, 1), padding=(1, 1), bias=False)
              (1): BatchNorm2d(256, eps=1e-05, momentum=0.1, affine=True, track_running_stats=True)
            )
            (relu): LeakyReLU(negative_slope=0.01, inplace=True)
            (shortcut): Sequential()
          )
        )
        (b): Sequential(
          (0): Flatten()
          (1): Linear(in_features=16384, out_features=2500, bias=True)
          (2): Sigmoid()
          (3): Linear(in_features=2500, out_features=500, bias=True)
          (4): Sigmoid()
        )
        (cri): MSELoss()
      )
      (ae): AE(
        (g): Sequential(
          (0): Linear(in_features=500, out_features=500, bias=True)
          (1): Sigmoid()
        )
        (h): Sequential(
          (0): Linear(in_features=500, out_features=500, bias=True)
          (1): Sigmoid()
        )
        (cri): MSELoss()
      )
    )
    (3): CNNLayer(
      (enc): ENC(
        (f): Sequential(
          (0): BasicBlock(
            (conv1): Sequential(
              (0): Conv2d(256, 512, kernel_size=(3, 3), stride=(2, 2), padding=(1, 1), bias=False)
              (1): BatchNorm2d(512, eps=1e-05, momentum=0.1, affine=True, track_running_stats=True)
              (2): LeakyReLU(negative_slope=0.01, inplace=True)
            )
            (conv2): Sequential(
              (0): Conv2d(512, 512, kernel_size=(3, 3), stride=(1, 1), padding=(1, 1), bias=False)
              (1): BatchNorm2d(512, eps=1e-05, momentum=0.1, affine=True, track_running_stats=True)
            )
            (relu): LeakyReLU(negative_slope=0.01, inplace=True)
            (shortcut): Sequential(
              (0): Conv2d(256, 512, kernel_size=(1, 1), stride=(2, 2), bias=False)
              (1): BatchNorm2d(512, eps=1e-05, momentum=0.1, affine=True, track_running_stats=True)
            )
          )
          (1): BasicBlock(
            (conv1): Sequential(
              (0): Conv2d(512, 512, kernel_size=(3, 3), stride=(1, 1), padding=(1, 1), bias=False)
              (1): BatchNorm2d(512, eps=1e-05, momentum=0.1, affine=True, track_running_stats=True)
              (2): LeakyReLU(negative_slope=0.01, inplace=True)
            )
            (conv2): Sequential(
              (0): Conv2d(512, 512, kernel_size=(3, 3), stride=(1, 1), padding=(1, 1), bias=False)
              (1): BatchNorm2d(512, eps=1e-05, momentum=0.1, affine=True, track_running_stats=True)
            )
            (relu): LeakyReLU(negative_slope=0.01, inplace=True)
            (shortcut): Sequential()
          )
        )
        (b): Sequential(
          (0): Flatten()
          (1): Linear(in_features=8192, out_features=2500, bias=True)
          (2): Sigmoid()
          (3): Linear(in_features=2500, out_features=500, bias=True)
          (4): Sigmoid()
        )
        (cri): MSELoss()
      )
      (ae): AE(
        (g): Sequential(
          (0): Linear(in_features=500, out_features=500, bias=True)
          (1): Sigmoid()
        )
        (h): Sequential(
          (0): Linear(in_features=500, out_features=500, bias=True)
          (1): Sigmoid()
        )
        (cri): MSELoss()
      )
    )
  )
)
layers.0.enc.f.0.0.weight 1728
layers.0.enc.f.0.1.weight 64
layers.0.enc.f.0.1.bias 64
layers.0.enc.f.1.0.conv1.0.weight 36864
layers.0.enc.f.1.0.conv1.1.weight 64
layers.0.enc.f.1.0.conv1.1.bias 64
layers.0.enc.f.1.0.conv2.0.weight 36864
layers.0.enc.f.1.0.conv2.1.weight 64
…
