model: CNN(
  (conv1): Sequential(
    (0): Conv2d(3, 32, kernel_size=(3, 3), stride=(1, 1), padding=(1, 1))
    (1): ReLU()
  )
  (conv2): Sequential(
    (0): Conv2d(32, 32, kernel_size=(3, 3), stride=(1, 1), padding=(1, 1))
    (1): ReLU()
  )
  (conv3): Sequential(
    (0): Conv2d(32, 32, kernel_size=(3, 3), stride=(1, 1), padding=(1, 1))
    (1): ReLU()
  )
  (conv4): Sequential(
    (0): Conv2d(32, 32, kernel_size=(3, 3), stride=(2, 2), padding=(1, 1))
    (1): ReLU()
  )
  (conv5): Sequential(
    (0): Conv2d(32, 64, kernel_size=(3, 3), stride=(1, 1), padding=(1, 1))
    (1): ReLU()
  )
  (conv6): Sequential(
    (0): Conv2d(64, 64, kernel_size=(3, 3), stride=(1, 1), padding=(1, 1))
    (1): ReLU()
  )
  (conv7): Sequential(
    (0): Conv2d(64, 64, kernel_size=(3, 3), stride=(1, 1), padding=(1, 1))
    (1): ReLU()
  )
  (conv8): Sequential(
    (0): Conv2d(64, 64, kernel_size=(3, 3), stride=(2, 2), padding=(1, 1))
    (1): ReLU()
  )
  (fc): Sequential(
    (0): Flatten()
    (1): Linear(in_features=4096, out_features=1500, bias=True)
    (2): Sigmoid()
    (3): Linear(in_features=1500, out_features=300, bias=True)
    (4): Linear(in_features=300, out_features=300, bias=True)
    (5): Linear(in_features=300, out_features=300, bias=True)
    (6): Linear(in_features=300, out_features=300, bias=True)
    (7): Linear(in_features=300, out_features=200, bias=True)
  )
  (ce): CrossEntropyLoss()
)
conv1.0.weight 864
conv1.0.bias 32
conv2.0.weight 9216
conv2.0.bias 32
conv3.0.weight 9216
conv3.0.bias 32
conv4.0.weight 9216
conv4.0.bias 32
conv5.0.weight 18432
conv5.0.bias 64
conv6.0.weight 36864
conv6.0.bias 64
conv7.0.weight 36864
conv7.0.bias 64
conv8.0.weight 36864
conv8.0.bias 64
fc.1.weight 6144000
fc.1.bias 1500
…
