Files already downloaded and verified
model: VGG_AL(
  (layers): ModuleList(
    (0): CNNLayer(
      (enc): ENC(
        (f): Sequential(
          (0): Sequential(
            (0): Conv2d(3, 128, kernel_size=(3, 3), stride=(1, 1), padding=(1, 1), bias=False)
            (1): BatchNorm2d(128, eps=1e-05, momentum=0.1, affine=True, track_running_stats=True)
            (2): ReLU()
          )
          (1): Sequential(
            (0): Conv2d(128, 256, kernel_size=(3, 3), stride=(1, 1), padding=(1, 1), bias=False)
            (1): BatchNorm2d(256, eps=1e-05, momentum=0.1, affine=True, track_running_stats=True)
            (2): ReLU()
          )
          (2): MaxPool2d(kernel_size=2, stride=2, padding=0, dilation=1, ceil_mode=False)
        )
        (b): Sequential(
          (0): Flatten()
          (1): Linear(in_features=65536, out_features=2500, bias=True)
          (2): Sigmoid()
          (3): Linear(in_features=2500, out_features=500, bias=True)
          (4): Sigmoid()
        )
        (cri): MSELoss()
      )
      (ae): AE(
        (g): Sequential(
          (0): Linear(in_features=100, out_features=500, bias=True)
          (1): Sigmoid()
        )
        (h): Sequential(
          (0): Linear(in_features=500, out_features=100, bias=True)
          (1): Sigmoid()
        )
        (cri): CrossEntropyLoss()
      )
    )
    (1): CNNLayer(
      (enc): ENC(
        (f): Sequential(
          (0): Sequential(
            (0): Conv2d(256, 256, kernel_size=(3, 3), stride=(1, 1), padding=(1, 1), bias=False)
            (1): BatchNorm2d(256, eps=1e-05, momentum=0.1, affine=True, track_running_stats=True)
            (2): ReLU()
          )
          (1): Sequential(
            (0): Conv2d(256, 512, kernel_size=(3, 3), stride=(1, 1), padding=(1, 1), bias=False)
            (1): BatchNorm2d(512, eps=1e-05, momentum=0.1, affine=True, track_running_stats=True)
            (2): ReLU()
          )
          (2): MaxPool2d(kernel_size=2, stride=2, padding=0, dilation=1, ceil_mode=False)
        )
        (b): Sequential(
          (0): Flatten()
          (1): Linear(in_features=32768, out_features=2500, bias=True)
          (2): Sigmoid()
          (3): Linear(in_features=2500, out_features=500, bias=True)
          (4): Sigmoid()
        )
        (cri): MSELoss()
      )
      (ae): AE(
        (g): Sequential(
          (0): Linear(in_features=500, out_features=500, bias=True)
          (1): Sigmoid()
        )
        (h): Sequential(
          (0): Linear(in_features=500, out_features=500, bias=True)
          (1): Sigmoid()
        )
        (cri): MSELoss()
      )
    )
    (2): CNNLayer(
      (enc): ENC(
        (f): Sequential(
          (0): Sequential(
            (0): Conv2d(512, 512, kernel_size=(3, 3), stride=(1, 1), padding=(1, 1), bias=False)
            (1): BatchNorm2d(512, eps=1e-05, momentum=0.1, affine=True, track_running_stats=True)
            (2): ReLU()
          )
          (1): MaxPool2d(kernel_size=2, stride=2, padding=0, dilation=1, ceil_mode=False)
        )
        (b): Sequential(
          (0): Flatten()
          (1): Linear(in_features=8192, out_features=2500, bias=True)
          (2): Sigmoid()
          (3): Linear(in_features=2500, out_features=500, bias=True)
          (4): Sigmoid()
        )
        (cri): MSELoss()
      )
      (ae): AE(
        (g): Sequential(
          (0): Linear(in_features=500, out_features=500, bias=True)
          (1): Sigmoid()
        )
        (h): Sequential(
          (0): Linear(in_features=500, out_features=500, bias=True)
          (1): Sigmoid()
        )
        (cri): MSELoss()
      )
    )
    (3): CNNLayer(
      (enc): ENC(
        (f): Sequential(
          (0): Sequential(
            (0): Conv2d(512, 512, kernel_size=(3, 3), stride=(1, 1), padding=(1, 1), bias=False)
            (1): BatchNorm2d(512, eps=1e-05, momentum=0.1, affine=True, track_running_stats=True)
            (2): ReLU()
          )
          (1): MaxPool2d(kernel_size=2, stride=2, padding=0, dilation=1, ceil_mode=False)
        )
        (b): Sequential(
          (0): Flatten()
          (1): Linear(in_features=2048, out_features=2500, bias=True)
          (2): Sigmoid()
          (3): Linear(in_features=2500, out_features=500, bias=True)
          (4): Sigmoid()
        )
        (cri): MSELoss()
      )
      (ae): AE(
        (g): Sequential(
          (0): Linear(in_features=500, out_features=500, bias=True)
          (1): Sigmoid()
        )
        (h): Sequential(
          (0): Linear(in_features=500, out_features=500, bias=True)
          (1): Sigmoid()
        )
        (cri): MSELoss()
      )
    )
  )
)
layers.0.enc.f.0.0.weight 3456
layers.0.enc.f.0.1.weight 128
layers.0.enc.f.0.1.bias 128
layers.0.enc.f.1.0.weight 294912
layers.0.enc.f.1.1.weight 256
layers.0.enc.f.1.1.bias 256
layers.0.enc.b.1.weight 163840000
layers.0.enc.b.1.bias 2500
layers.0.enc.b.3.weight 1250000
layers.0.enc.b.3.bias 500
…
