Files already downloaded and verified
model: VGG(
  (ce): CrossEntropyLoss()
  (layer1): Sequential(
    (0): Sequential(
      (0): Conv2d(3, 128, kernel_size=(3, 3), stride=(1, 1), padding=(1, 1), bias=False)
      (1): BatchNorm2d(128, eps=1e-05, momentum=0.1, affine=True, track_running_stats=True)
      (2): ReLU()
    )
    (1): Sequential(
      (0): Conv2d(128, 256, kernel_size=(3, 3), stride=(1, 1), padding=(1, 1), bias=False)
      (1): BatchNorm2d(256, eps=1e-05, momentum=0.1, affine=True, track_running_stats=True)
      (2): ReLU()
    )
    (2): MaxPool2d(kernel_size=2, stride=2, padding=0, dilation=1, ceil_mode=False)
  )
  (layer2): Sequential(
    (0): Sequential(
      (0): Conv2d(256, 256, kernel_size=(3, 3), stride=(1, 1), padding=(1, 1), bias=False)
      (1): BatchNorm2d(256, eps=1e-05, momentum=0.1, affine=True, track_running_stats=True)
      (2): ReLU()
    )
    (1): Sequential(
      (0): Conv2d(256, 512, kernel_size=(3, 3), stride=(1, 1), padding=(1, 1), bias=False)
      (1): BatchNorm2d(512, eps=1e-05, momentum=0.1, affine=True, track_running_stats=True)
      (2): ReLU()
    )
    (2): MaxPool2d(kernel_size=2, stride=2, padding=0, dilation=1, ceil_mode=False)
  )
  (layer3): Sequential(
    (0): Sequential(
      (0): Conv2d(512, 512, kernel_size=(3, 3), stride=(1, 1), padding=(1, 1), bias=False)
      (1): BatchNorm2d(512, eps=1e-05, momentum=0.1, affine=True, track_running_stats=True)
      (2): ReLU()
    )
    (1): MaxPool2d(kernel_size=2, stride=2, padding=0, dilation=1, ceil_mode=False)
  )
  (layer4): Sequential(
    (0): Sequential(
      (0): Conv2d(512, 512, kernel_size=(3, 3), stride=(1, 1), padding=(1, 1), bias=False)
      (1): BatchNorm2d(512, eps=1e-05, momentum=0.1, affine=True, track_running_stats=True)
      (2): ReLU()
    )
    (1): MaxPool2d(kernel_size=2, stride=2, padding=0, dilation=1, ceil_mode=False)
  )
  (fc): Sequential(
    (0): Flatten()
    (1): Linear(in_features=2048, out_features=2500, bias=True)
    (2): Sigmoid()
    (3): Linear(in_features=2500, out_features=500, bias=True)
    (4): Linear(in_features=500, out_features=500, bias=True)
    (5): Sigmoid()
    (6): Linear(in_features=500, out_features=500, bias=True)
    (7): Sigmoid()
    (8): Linear(in_features=500, out_features=500, bias=True)
    (9): Sigmoid()
    (10): Linear(in_features=500, out_features=100, bias=True)
  )
)
layer1.0.0.weight 3456
layer1.0.1.weight 128
layer1.0.1.bias 128
layer1.1.0.weight 294912
layer1.1.1.weight 256
layer1.1.1.bias 256
layer2.0.0.weight 589824
layer2.0.1.weight 256
layer2.0.1.bias 256
layer2.1.0.weight 1179648
layer2.1.1.weight 512
layer2.1.1.bias 512
layer3.0.0.weight 2359296
layer3.0.1.weight 512
layer3.0.1.bias 512
layer4.0.0.weight 2359296
…
